…
I0909 07:20:59.631978 36933 net.cpp:294] The NetState phase (0) differed from the phase (1) specified by a rule in layer accuracy
I0909 07:20:59.632284 36933 net.cpp:51] Initializing net from parameters: 
name: "AlexNet"
state {
  phase: TRAIN
  level: 0
  stage: ""
}
layer {
  name: "data"
  type: "Data"
  top: "data"
  top: "label"
  include {
    phase: TRAIN
  }
  transform_param {
    mirror: true
    crop_size: 227
    mean_file: "data/ilsvrc12/imagenet_mean.binaryproto"
  }
  data_param {
    source: "/home/data/caffe-imagenet/ilsvrc12_train_lmdb"
    batch_size: 256
    backend: LMDB
  }
}
layer {
  name: "conv1"
  type: "Convolution"
  bottom: "data"
  top: "conv1"
  param {
    lr_mult: 1
    decay_mult: 1
  }
  param {
    lr_mult: 2
    decay_mult: 0
  }
  convolution_param {
    num_output: 96
    kernel_size: 11
    stride: 4
    weight_filler {
      type: "gaussian"
      std: 0.01
    }
    bias_filler {
      type: "constant"
      value: 0
    }
  }
}
layer {
  name: "relu1"
  type: "ReLU"
  bottom: "conv1"
  top: "conv1"
}
layer {
  name: "norm1"
  type: "LRN"
  bottom: "conv1"
  top: "norm1"
  lrn_param {
    local_size: 5
    alpha: 0.0001
    beta: 0.75
  }
}
layer {
  name: "pool1"
  type: "Pooling"
  bottom: "norm1"
  top: "pool1"
  pooling_param {
    pool: MAX
    kernel_size: 3
    stride: 2
  }
}
layer {
  name: "conv2"
  type: "Convolution"
  bottom: "pool1"
  top: "conv2"
  param {
    lr_mult: 1
    decay_mult: 1
  }
  param {
    lr_mult: 2
    decay_mult: 0
  }
  convolution_param {
    num_output: 256
    pad: 2
    kernel_size: 5
    group: 2
    weight_filler {
      type: "gaussian"
      std: 0.01
    }
    bias_filler {
      type: "constant"
      value: 0.1
    }
  }
}
layer {
  name: "relu2"
  type: "ReLU"
  bottom: "conv2"
  top: "conv2"
}
layer {
  name: "norm2"
  type: "LRN"
  bottom: "conv2"
  top: "norm2"
  lrn_param {
    local_size: 5
    alpha: 0.0001
    beta: 0.75
  }
}
layer {
  name: "pool2"
  type: "Pooling"
  bottom: "norm2"
  top: "pool2"
  pooling_param {
    pool: MAX
    kernel_size: 3
    stride: 2
  }
}
layer {
  name: "conv3"
  type: "Convolution"
  bottom: "pool2"
  top: "conv3"
  param {
    lr_mult: 1
    decay_mult: 1
  }
  param {
    lr_mult: 2
    decay_mult: 0
  }
  convolution_param {
    num_output: 384
    pad: 1
    kernel_size: 3
    weight_filler {
      type: "gaussian"
      std: 0.01
    }
    bias_filler {
      type: "constant"
      value: 0
    }
  }
}
layer {
  name: "relu3"
  type: "ReLU"
  bottom: "conv3"
  top: "conv3"
}
layer {
  name: "conv4"
  type: "Convolution"
  bottom: "conv3"
  top: "conv4"
  param {
    lr_mult: 1
    decay_mult: 1
  }
  param {
    lr_mult: 2
    decay_mult: 0
  }
  convolution_param {
    num_output: 384
    pad: 1
    kernel_size: 3
    group: 2
    weight_filler {
      type: "gaussian"
      std: 0.01
    }
    bias_filler {
      type: "constant"
      value: 0.1
    }
  }
}
layer {
  name: "relu4"
  type: "ReLU"
  bottom: "conv4"
  top: "conv4"
}
layer {
  name: "conv5"
  type: "Convolution"
  bottom: "conv4"
  top: "conv5"
  param {
    lr_mult: 1
    decay_mult: 1
  }
  param {
    lr_mult: 2
    decay_mult: 0
  }
  convolution_param {
    num_output: 256
    pad: 1
    kernel_size: 3
    group: 2
    weight_filler {
      type: "gaussian"
      std: 0.01
    }
    bias_filler {
      type: "constant"
      value: 0.1
    }
  }
}
layer {
  name: "relu5"
  type: "ReLU"
  bottom: "conv5"
  top: "conv5"
}
layer {
  name: "pool5"
  type: "Pooling"
  bottom: "conv5"
  top: "pool5"
  pooling_param {
    pool: MAX
    kernel_size: 3
    stride: 2
  }
}
layer {
  name: "fc6"
  type: "InnerProduct"
  bottom: "pool5"
  top: "fc6"
  param {
    lr_mult: 1
    decay_mult: 1
  }
  param {
    lr_mult: 2
    decay_mult: 0
  }
  inner_product_param {
    num_output: 4096
    weight_filler {
      type: "gaussian"
      std: 0.005
    }
    bias_filler {
      type: "constant"
      value: 0.1
    }
  }
}
layer {
  name: "relu6"
  type: "ReLU"
  bottom: "fc6"
  top: "fc6"
}
layer {
  name: "drop6"
  type: "Dropout"
  bottom: "fc6"
  top: "fc6"
  dropout_param {
    dropout_ratio: 0.5
  }
}
layer {
  name: "fc7"
  type: "InnerProduct"
  bottom: "fc6"
  top: "fc7"
  param {
    lr_mult: 1
    decay_mult: 1
  }
  param {
    lr_mult: 2
    decay_mult: 0
  }
  inner_product_param {
    num_output: 4096
    weight_filler {
      type: "gaussian"
      std: 0.005
    }
    bias_filler {
      type: "constant"
      value: 0.1
    }
  }
}
layer {
  name: "relu7"
  type: "ReLU"
  bottom: "fc7"
  top: "fc7"
}
layer {
  name: "drop7"
  type: "Dropout"
  bottom: "fc7"
  top: "fc7"
  dropout_param {
    dropout_ratio: 0.5
  }
}
layer {
  name: "fc8"
  type: "InnerProduct"
  bottom: "fc7"
  top: "fc8"
  param {
    lr_mult: 1
    decay_mult: 1
  }
  param {
    lr_mult: 2
    decay_mult: 0
  }
  inner_product_param {
    num_output: 1000
    weight_filler {
      type: "gaussian"
      std: 0.01
    }
    bias_filler {
      type: "constant"
      value: 0
    }
  }
}
layer {
  name: "loss"
  type: "SoftmaxWithLoss"
  bottom: "fc8"
  bottom: "label"
  top: "loss"
}
I0909 07:20:59.632462 36933 layer_factory.hpp:77] Creating layer data
I0909 07:20:59.632993 36933 db_lmdb.cpp:35] Opened lmdb /home/data/caffe-imagenet/ilsvrc12_train_lmdb
I0909 07:20:59.633044 36933 net.cpp:84] Creating Layer data
I0909 07:20:59.633055 36933 net.cpp:380] data -> data
I0909 07:20:59.633086 36933 net.cpp:380] data -> label
I0909 07:20:59.633105 36933 data_transformer.cpp:25] Loading mean file from: data/ilsvrc12/imagenet_mean.binaryproto
I0909 07:20:59.638321 36933 data_layer.cpp:45] output data size: 256,3,227,227
I0909 07:21:00.025295 36933 net.cpp:122] Setting up data
I0909 07:21:00.025344 36933 net.cpp:129] Top shape: 256 3 227 227 (39574272)
I0909 07:21:00.025352 36933 net.cpp:129] Top shape: 256 (256)
I0909 07:21:00.025357 36933 net.cpp:137] Memory required for data: 158298112
I0909 07:21:00.025372 36933 layer_factory.hpp:77] Creating layer conv1
I0909 07:21:00.025409 36933 net.cpp:84] Creating Layer conv1
I0909 07:21:00.025420 36933 net.cpp:406] conv1 <- data
I0909 07:21:00.025441 36933 net.cpp:380] conv1 -> conv1
I0909 07:21:00.412421 36933 net.cpp:122] Setting up conv1
I0909 07:21:00.412467 36933 net.cpp:129] Top shape: 256 96 55 55 (74342400)
I0909 07:21:00.412472 36933 net.cpp:137] Memory required for data: 455667712
I0909 07:21:00.412505 36933 layer_factory.hpp:77] Creating layer relu1
I0909 07:21:00.412528 36933 net.cpp:84] Creating Layer relu1
I0909 07:21:00.412535 36933 net.cpp:406] relu1 <- conv1
I0909 07:21:00.412542 36933 net.cpp:367] relu1 -> conv1 (in-place)
I0909 07:21:00.412755 36933 net.cpp:122] Setting up relu1
I0909 07:21:00.412765 36933 net.cpp:129] Top shape: 256 96 55 55 (74342400)
I0909 07:21:00.412770 36933 net.cpp:137] Memory required for data: 753037312
I0909 07:21:00.412775 36933 layer_factory.hpp:77] Creating layer norm1
I0909 07:21:00.412789 36933 net.cpp:84] Creating Layer norm1
I0909 07:21:00.412794 36933 net.cpp:406] norm1 <- conv1
I0909 07:21:00.412801 36933 net.cpp:380] norm1 -> norm1
I0909 07:21:00.414185 36933 net.cpp:122] Setting up norm1
I0909 07:21:00.414202 36933 net.cpp:129] Top shape: 256 96 55 55 (74342400)
I0909 07:21:00.414207 36933 net.cpp:137] Memory required for data: 1050406912
I0909 07:21:00.414213 36933 layer_factory.hpp:77] Creating layer pool1
I0909 07:21:00.414238 36933 net.cpp:84] Creating Layer pool1
I0909 07:21:00.414270 36933 net.cpp:406] pool1 <- norm1
I0909 07:21:00.414283 36933 net.cpp:380] pool1 -> pool1
I0909 07:21:00.414356 36933 net.cpp:122] Setting up pool1
I0909 07:21:00.414367 36933 net.cpp:129] Top shape: 256 96 27 27 (17915904)
I0909 07:21:00.414371 36933 net.cpp:137] Memory required for data: 1122070528
I0909 07:21:00.414376 36933 layer_factory.hpp:77] Creating layer conv2
I0909 07:21:00.414399 36933 net.cpp:84] Creating Layer conv2
I0909 07:21:00.414405 36933 net.cpp:406] conv2 <- pool1
I0909 07:21:00.414413 36933 net.cpp:380] conv2 -> conv2
I0909 07:21:00.422073 36933 net.cpp:122] Setting up conv2
I0909 07:21:00.422093 36933 net.cpp:129] Top shape: 256 256 27 27 (47775744)
I0909 07:21:00.422098 36933 net.cpp:137] Memory required for data: 1313173504
I0909 07:21:00.422111 36933 layer_factory.hpp:77] Creating layer relu2
I0909 07:21:00.422121 36933 net.cpp:84] Creating Layer relu2
I0909 07:21:00.422125 36933 net.cpp:406] relu2 <- conv2
I0909 07:21:00.422132 36933 net.cpp:367] relu2 -> conv2 (in-place)
I0909 07:21:00.423513 36933 net.cpp:122] Setting up relu2
I0909 07:21:00.423532 36933 net.cpp:129] Top shape: 256 256 27 27 (47775744)
I0909 07:21:00.423537 36933 net.cpp:137] Memory required for data: 1504276480
I0909 07:21:00.423542 36933 layer_factory.hpp:77] Creating layer norm2
I0909 07:21:00.423554 36933 net.cpp:84] Creating Layer norm2
I0909 07:21:00.423559 36933 net.cpp:406] norm2 <- conv2
I0909 07:21:00.423568 36933 net.cpp:380] norm2 -> norm2
I0909 07:21:00.423801 36933 net.cpp:122] Setting up norm2
I0909 07:21:00.423813 36933 net.cpp:129] Top shape: 256 256 27 27 (47775744)
I0909 07:21:00.423818 36933 net.cpp:137] Memory required for data: 1695379456
I0909 07:21:00.423823 36933 layer_factory.hpp:77] Creating layer pool2
I0909 07:21:00.423833 36933 net.cpp:84] Creating Layer pool2
I0909 07:21:00.423838 36933 net.cpp:406] pool2 <- norm2
I0909 07:21:00.423846 36933 net.cpp:380] pool2 -> pool2
I0909 07:21:00.423884 36933 net.cpp:122] Setting up pool2
I0909 07:21:00.423892 36933 net.cpp:129] Top shape: 256 256 13 13 (11075584)
I0909 07:21:00.423897 36933 net.cpp:137] Memory required for data: 1739681792
I0909 07:21:00.423900 36933 layer_factory.hpp:77] Creating layer conv3
I0909 07:21:00.423913 36933 net.cpp:84] Creating Layer conv3
I0909 07:21:00.423919 36933 net.cpp:406] conv3 <- pool2
I0909 07:21:00.423926 36933 net.cpp:380] conv3 -> conv3
I0909 07:21:00.439690 36933 net.cpp:122] Setting up conv3
I0909 07:21:00.439716 36933 net.cpp:129] Top shape: 256 384 13 13 (16613376)
I0909 07:21:00.439723 36933 net.cpp:137] Memory required for data: 1806135296
I0909 07:21:00.439736 36933 layer_factory.hpp:77] Creating layer relu3
I0909 07:21:00.439749 36933 net.cpp:84] Creating Layer relu3
I0909 07:21:00.439755 36933 net.cpp:406] relu3 <- conv3
I0909 07:21:00.439764 36933 net.cpp:367] relu3 -> conv3 (in-place)
I0909 07:21:00.439973 36933 net.cpp:122] Setting up relu3
I0909 07:21:00.439983 36933 net.cpp:129] Top shape: 256 384 13 13 (16613376)
I0909 07:21:00.439987 36933 net.cpp:137] Memory required for data: 1872588800
I0909 07:21:00.439992 36933 layer_factory.hpp:77] Creating layer conv4
I0909 07:21:00.440006 36933 net.cpp:84] Creating Layer conv4
I0909 07:21:00.440011 36933 net.cpp:406] conv4 <- conv3
I0909 07:21:00.440019 36933 net.cpp:380] conv4 -> conv4
I0909 07:21:00.454519 36933 net.cpp:122] Setting up conv4
I0909 07:21:00.454540 36933 net.cpp:129] Top shape: 256 384 13 13 (16613376)
I0909 07:21:00.454545 36933 net.cpp:137] Memory required for data: 1939042304
I0909 07:21:00.454557 36933 layer_factory.hpp:77] Creating layer relu4
I0909 07:21:00.454566 36933 net.cpp:84] Creating Layer relu4
I0909 07:21:00.454572 36933 net.cpp:406] relu4 <- conv4
I0909 07:21:00.454579 36933 net.cpp:367] relu4 -> conv4 (in-place)
I0909 07:21:00.454815 36933 net.cpp:122] Setting up relu4
I0909 07:21:00.454829 36933 net.cpp:129] Top shape: 256 384 13 13 (16613376)
I0909 07:21:00.454833 36933 net.cpp:137] Memory required for data: 2005495808
I0909 07:21:00.454850 36933 layer_factory.hpp:77] Creating layer conv5
I0909 07:21:00.454893 36933 net.cpp:84] Creating Layer conv5
I0909 07:21:00.454900 36933 net.cpp:406] conv5 <- conv4
I0909 07:21:00.454908 36933 net.cpp:380] conv5 -> conv5
I0909 07:21:00.466557 36933 net.cpp:122] Setting up conv5
I0909 07:21:00.466578 36933 net.cpp:129] Top shape: 256 256 13 13 (11075584)
I0909 07:21:00.466583 36933 net.cpp:137] Memory required for data: 2049798144
I0909 07:21:00.466598 36933 layer_factory.hpp:77] Creating layer relu5
I0909 07:21:00.466609 36933 net.cpp:84] Creating Layer relu5
I0909 07:21:00.466614 36933 net.cpp:406] relu5 <- conv5
I0909 07:21:00.466619 36933 net.cpp:367] relu5 -> conv5 (in-place)
I0909 07:21:00.466855 36933 net.cpp:122] Setting up relu5
I0909 07:21:00.466867 36933 net.cpp:129] Top shape: 256 256 13 13 (11075584)
I0909 07:21:00.466872 36933 net.cpp:137] Memory required for data: 2094100480
I0909 07:21:00.466876 36933 layer_factory.hpp:77] Creating layer pool5
I0909 07:21:00.466891 36933 net.cpp:84] Creating Layer pool5
I0909 07:21:00.466897 36933 net.cpp:406] pool5 <- conv5
I0909 07:21:00.466903 36933 net.cpp:380] pool5 -> pool5
I0909 07:21:00.466958 36933 net.cpp:122] Setting up pool5
I0909 07:21:00.466965 36933 net.cpp:129] Top shape: 256 256 6 6 (2359296)
I0909 07:21:00.466969 36933 net.cpp:137] Memory required for data: 2103537664
I0909 07:21:00.466974 36933 layer_factory.hpp:77] Creating layer fc6
I0909 07:21:00.466994 36933 net.cpp:84] Creating Layer fc6
I0909 07:21:00.466998 36933 net.cpp:406] fc6 <- pool5
I0909 07:21:00.467005 36933 net.cpp:380] fc6 -> fc6
I0909 07:21:00.979081 36933 net.cpp:122] Setting up fc6
I0909 07:21:00.979130 36933 net.cpp:129] Top shape: 256 4096 (1048576)
I0909 07:21:00.979145 36933 net.cpp:137] Memory required for data: 2107731968
I0909 07:21:00.979161 36933 layer_factory.hpp:77] Creating layer relu6
I0909 07:21:00.979178 36933 net.cpp:84] Creating Layer relu6
I0909 07:21:00.979184 36933 net.cpp:406] relu6 <- fc6
I0909 07:21:00.979193 36933 net.cpp:367] relu6 -> fc6 (in-place)
I0909 07:21:00.982028 36933 net.cpp:122] Setting up relu6
I0909 07:21:00.982048 36933 net.cpp:129] Top shape: 256 4096 (1048576)
I0909 07:21:00.982053 36933 net.cpp:137] Memory required for data: 2111926272
I0909 07:21:00.982058 36933 layer_factory.hpp:77] Creating layer drop6
I0909 07:21:00.982070 36933 net.cpp:84] Creating Layer drop6
I0909 07:21:00.982075 36933 net.cpp:406] drop6 <- fc6
I0909 07:21:00.982084 36933 net.cpp:367] drop6 -> fc6 (in-place)
I0909 07:21:00.982118 36933 net.cpp:122] Setting up drop6
I0909 07:21:00.982126 36933 net.cpp:129] Top shape: 256 4096 (1048576)
I0909 07:21:00.982131 36933 net.cpp:137] Memory required for data: 2116120576
I0909 07:21:00.982136 36933 layer_factory.hpp:77] Creating layer fc7
I0909 07:21:00.982156 36933 net.cpp:84] Creating Layer fc7
I0909 07:21:00.982165 36933 net.cpp:406] fc7 <- fc6
I0909 07:21:00.982174 36933 net.cpp:380] fc7 -> fc7
I0909 07:21:01.210305 36933 net.cpp:122] Setting up fc7
I0909 07:21:01.210352 36933 net.cpp:129] Top shape: 256 4096 (1048576)
I0909 07:21:01.210357 36933 net.cpp:137] Memory required for data: 2120314880
I0909 07:21:01.210371 36933 layer_factory.hpp:77] Creating layer relu7
I0909 07:21:01.210391 36933 net.cpp:84] Creating Layer relu7
I0909 07:21:01.210399 36933 net.cpp:406] relu7 <- fc7
I0909 07:21:01.210409 36933 net.cpp:367] relu7 -> fc7 (in-place)
I0909 07:21:01.210706 36933 net.cpp:122] Setting up relu7
I0909 07:21:01.210721 36933 net.cpp:129] Top shape: 256 4096 (1048576)
I0909 07:21:01.210726 36933 net.cpp:137] Memory required for data: 2124509184
I0909 07:21:01.210731 36933 layer_factory.hpp:77] Creating layer drop7
I0909 07:21:01.210744 36933 net.cpp:84] Creating Layer drop7
I0909 07:21:01.210749 36933 net.cpp:406] drop7 <- fc7
I0909 07:21:01.210757 36933 net.cpp:367] drop7 -> fc7 (in-place)
I0909 07:21:01.210783 36933 net.cpp:122] Setting up drop7
I0909 07:21:01.210790 36933 net.cpp:129] Top shape: 256 4096 (1048576)
I0909 07:21:01.210794 36933 net.cpp:137] Memory required for data: 2128703488
I0909 07:21:01.210809 36933 layer_factory.hpp:77] Creating layer fc8
I0909 07:21:01.210846 36933 net.cpp:84] Creating Layer fc8
I0909 07:21:01.210851 36933 net.cpp:406] fc8 <- fc7
I0909 07:21:01.210860 36933 net.cpp:380] fc8 -> fc8
I0909 07:21:01.268064 36933 net.cpp:122] Setting up fc8
I0909 07:21:01.268085 36933 net.cpp:129] Top shape: 256 1000 (256000)
I0909 07:21:01.268090 36933 net.cpp:137] Memory required for data: 2129727488
I0909 07:21:01.268101 36933 layer_factory.hpp:77] Creating layer loss
I0909 07:21:01.268117 36933 net.cpp:84] Creating Layer loss
I0909 07:21:01.268123 36933 net.cpp:406] loss <- fc8
I0909 07:21:01.268129 36933 net.cpp:406] loss <- label
I0909 07:21:01.268138 36933 net.cpp:380] loss -> loss
I0909 07:21:01.268160 36933 layer_factory.hpp:77] Creating layer loss
…
I0909 07:21:01.271214 36933 net.cpp:294] The NetState phase (1) differed from the phase (0) specified by a rule in layer data
I0909 07:21:01.271543 36933 net.cpp:51] Initializing net from parameters: 
name: "AlexNet"
state {
  phase: TEST
}
layer {
  name: "data"
  type: "Data"
  top: "data"
  top: "label"
  include {
    phase: TEST
  }
  transform_param {
    mirror: false
    crop_size: 227
    mean_file: "data/ilsvrc12/imagenet_mean.binaryproto"
  }
  data_param {
    source: "/home/data/caffe-imagenet/ilsvrc12_val_lmdb"
    batch_size: 50
    backend: LMDB
  }
}
layer {
  name: "conv1"
  type: "Convolution"
  bottom: "data"
  top: "conv1"
  param {
    lr_mult: 1
    decay_mult: 1
  }
  param {
    lr_mult: 2
    decay_mult: 0
  }
  convolution_param {
    num_output: 96
    kernel_size: 11
    stride: 4
    weight_filler {
      type: "gaussian"
      std: 0.01
    }
    bias_filler {
      type: "constant"
      value: 0
    }
  }
}
layer {
  name: "relu1"
  type: "ReLU"
  bottom: "conv1"
  top: "conv1"
}
layer {
  name: "norm1"
  type: "LRN"
  bottom: "conv1"
  top: "norm1"
  lrn_param {
    local_size: 5
    alpha: 0.0001
    beta: 0.75
  }
}
layer {
  name: "pool1"
  type: "Pooling"
  bottom: "norm1"
  top: "pool1"
  pooling_param {
    pool: MAX
    kernel_size: 3
    stride: 2
  }
}
layer {
  name: "conv2"
  type: "Convolution"
  bottom: "pool1"
  top: "conv2"
  param {
    lr_mult: 1
    decay_mult: 1
  }
  param {
    lr_mult: 2
    decay_mult: 0
  }
  convolution_param {
    num_output: 256
    pad: 2
    kernel_size: 5
    group: 2
    weight_filler {
      type: "gaussian"
      std: 0.01
    }
    bias_filler {
      type: "constant"
      value: 0.1
    }
  }
}
layer {
  name: "relu2"
  type: "ReLU"
  bottom: "conv2"
  top: "conv2"
}
layer {
  name: "norm2"
  type: "LRN"
  bottom: "conv2"
  top: "norm2"
  lrn_param {
    local_size: 5
    alpha: 0.0001
    beta: 0.75
  }
}
layer {
  name: "pool2"
  type: "Pooling"
  bottom: "norm2"
  top: "pool2"
  pooling_param {
    pool: MAX
    kernel_size: 3
    stride: 2
  }
}
layer {
  name: "conv3"
  type: "Convolution"
  bottom: "pool2"
  top: "conv3"
  param {
    lr_mult: 1
    decay_mult: 1
  }
  param {
    lr_mult: 2
    decay_mult: 0
  }
  convolution_param {
    num_output: 384
    pad: 1
    kernel_size: 3
    weight_filler {
      type: "gaussian"
      std: 0.01
    }
    bias_filler {
      type: "constant"
      value: 0
    }
  }
}
layer {
  name: "relu3"
  type: "ReLU"
  bottom: "conv3"
  top: "conv3"
}
layer {
  name: "conv4"
  type: "Convolution"
  bottom: "conv3"
  top: "conv4"
  param {
    lr_mult: 1
    decay_mult: 1
  }
  param {
    lr_mult: 2
    decay_mult: 0
  }
  convolution_param {
    num_output: 384
    pad: 1
    kernel_size: 3
    group: 2
    weight_filler {
      type: "gaussian"
      std: 0.01
    }
    bias_filler {
      type: "constant"
      value: 0.1
    }
  }
}
layer {
  name: "relu4"
  type: "ReLU"
  bottom: "conv4"
  top: "conv4"
}
layer {
  name: "conv5"
  type: "Convolution"
  bottom: "conv4"
  top: "conv5"
  param {
    lr_mult: 1
    decay_mult: 1
  }
  param {
    lr_mult: 2
    decay_mult: 0
  }
  convolution_param {
    num_output: 256
    pad: 1
    kernel_size: 3
    group: 2
    weight_filler {
      type: "gaussian"
      std: 0.01
    }
    bias_filler {
      type: "constant"
      value: 0.1
    }
  }
}
layer {
  name: "relu5"
  type: "ReLU"
  bottom: "conv5"
  top: "conv5"
}
layer {
  name: "pool5"
  type: "Pooling"
  bottom: "conv5"
  top: "pool5"
  pooling_param {
    pool: MAX
    kernel_size: 3
    stride: 2
  }
}
layer {
  name: "fc6"
  type: "InnerProduct"
  bottom: "pool5"
  top: "fc6"
  param {
    lr_mult: 1
    decay_mult: 1
  }
  param {
    lr_mult: 2
    decay_mult: 0
  }
  inner_product_param {
    num_output: 4096
    weight_filler {
      type: "gaussian"
      std: 0.005
    }
    bias_filler {
      type: "constant"
      value: 0.1
    }
  }
}
layer {
  name: "relu6"
  type: "ReLU"
  bottom: "fc6"
  top: "fc6"
}
layer {
  name: "drop6"
  type: "Dropout"
  bottom: "fc6"
  top: "fc6"
  dropout_param {
    dropout_ratio: 0.5
  }
}
layer {
  name: "fc7"
  type: "InnerProduct"
  bottom: "fc6"
  top: "fc7"
  param {
    lr_mult: 1
    decay_mult: 1
  }
  param {
    lr_mult: 2
    decay_mult: 0
  }
  inner_product_param {
    num_output: 4096
    weight_filler {
      type: "gaussian"
      std: 0.005
    }
    bias_filler {
      type: "constant"
      value: 0.1
    }
  }
}
layer {
  name: "relu7"
  type: "ReLU"
  bottom: "fc7"
  top: "fc7"
}
layer {
  name: "drop7"
  type: "Dropout"
  bottom: "fc7"
  top: "fc7"
  dropout_param {
    dropout_ratio: 0.5
  }
}
layer {
  name: "fc8"
  type: "InnerProduct"
  bottom: "fc7"
  top: "fc8"
  param {
    lr_mult: 1
    decay_mult: 1
  }
  param {
    lr_mult: 2
    decay_mult: 0
  }
  inner_product_param {
    num_output: 1000
    weight_filler {
      type: "gaussian"
      std: 0.01
    }
    bias_filler {
      type: "constant"
      value: 0
    }
  }
}
layer {
  name: "accuracy"
  type: "Accuracy"
  bottom: "fc8"
  bottom: "label"
  top: "accuracy"
  include {
    phase: TEST
  }
}
layer {
  name: "loss"
  type: "SoftmaxWithLoss"
  bottom: "fc8"
  bottom: "label"
  top: "loss"
}
I0909 07:21:01.271715 36933 layer_factory.hpp:77] Creating layer data
I0909 07:21:01.271800 36933 db_lmdb.cpp:35] Opened lmdb /home/data/caffe-imagenet/ilsvrc12_val_lmdb
I0909 07:21:01.271823 36933 net.cpp:84] Creating Layer data
I0909 07:21:01.271834 36933 net.cpp:380] data -> data
I0909 07:21:01.271847 36933 net.cpp:380] data -> label
I0909 07:21:01.271855 36933 data_transformer.cpp:25] Loading mean file from: data/ilsvrc12/imagenet_mean.binaryproto
I0909 07:21:01.273993 36933 data_layer.cpp:45] output data size: 50,3,227,227
I0909 07:21:01.357327 36933 net.cpp:122] Setting up data
I0909 07:21:01.357372 36933 net.cpp:129] Top shape: 50 3 227 227 (7729350)
I0909 07:21:01.357386 36933 net.cpp:129] Top shape: 50 (50)
I0909 07:21:01.357391 36933 net.cpp:137] Memory required for data: 30917600
I0909 07:21:01.357400 36933 layer_factory.hpp:77] Creating layer label_data_1_split
I0909 07:21:01.357424 36933 net.cpp:84] Creating Layer label_data_1_split
I0909 07:21:01.357430 36933 net.cpp:406] label_data_1_split <- label
I0909 07:21:01.357439 36933 net.cpp:380] label_data_1_split -> label_data_1_split_0
I0909 07:21:01.357451 36933 net.cpp:380] label_data_1_split -> label_data_1_split_1
I0909 07:21:01.357615 36933 net.cpp:122] Setting up label_data_1_split
I0909 07:21:01.357628 36933 net.cpp:129] Top shape: 50 (50)
I0909 07:21:01.357635 36933 net.cpp:129] Top shape: 50 (50)
I0909 07:21:01.357638 36933 net.cpp:137] Memory required for data: 30918000
I0909 07:21:01.357643 36933 layer_factory.hpp:77] Creating layer conv1
I0909 07:21:01.357661 36933 net.cpp:84] Creating Layer conv1
I0909 07:21:01.357666 36933 net.cpp:406] conv1 <- data
I0909 07:21:01.357674 36933 net.cpp:380] conv1 -> conv1
I0909 07:21:01.363020 36933 net.cpp:122] Setting up conv1
I0909 07:21:01.363041 36933 net.cpp:129] Top shape: 50 96 55 55 (14520000)
I0909 07:21:01.363049 36933 net.cpp:137] Memory required for data: 88998000
I0909 07:21:01.363070 36933 layer_factory.hpp:77] Creating layer relu1
I0909 07:21:01.363083 36933 net.cpp:84] Creating Layer relu1
I0909 07:21:01.363088 36933 net.cpp:406] relu1 <- conv1
I0909 07:21:01.363096 36933 net.cpp:367] relu1 -> conv1 (in-place)
I0909 07:21:01.363308 36933 net.cpp:122] Setting up relu1
I0909 07:21:01.363318 36933 net.cpp:129] Top shape: 50 96 55 55 (14520000)
I0909 07:21:01.363323 36933 net.cpp:137] Memory required for data: 147078000
I0909 07:21:01.363327 36933 layer_factory.hpp:77] Creating layer norm1
I0909 07:21:01.363339 36933 net.cpp:84] Creating Layer norm1
I0909 07:21:01.363344 36933 net.cpp:406] norm1 <- conv1
I0909 07:21:01.363351 36933 net.cpp:380] norm1 -> norm1
I0909 07:21:01.364856 36933 net.cpp:122] Setting up norm1
I0909 07:21:01.364876 36933 net.cpp:129] Top shape: 50 96 55 55 (14520000)
I0909 07:21:01.364881 36933 net.cpp:137] Memory required for data: 205158000
I0909 07:21:01.364886 36933 layer_factory.hpp:77] Creating layer pool1
I0909 07:21:01.364897 36933 net.cpp:84] Creating Layer pool1
I0909 07:21:01.364902 36933 net.cpp:406] pool1 <- norm1
I0909 07:21:01.364909 36933 net.cpp:380] pool1 -> pool1
I0909 07:21:01.364956 36933 net.cpp:122] Setting up pool1
I0909 07:21:01.364964 36933 net.cpp:129] Top shape: 50 96 27 27 (3499200)
I0909 07:21:01.364969 36933 net.cpp:137] Memory required for data: 219154800
I0909 07:21:01.364972 36933 layer_factory.hpp:77] Creating layer conv2
I0909 07:21:01.364985 36933 net.cpp:84] Creating Layer conv2
I0909 07:21:01.364990 36933 net.cpp:406] conv2 <- pool1
I0909 07:21:01.365000 36933 net.cpp:380] conv2 -> conv2
I0909 07:21:01.372768 36933 net.cpp:122] Setting up conv2
I0909 07:21:01.372788 36933 net.cpp:129] Top shape: 50 256 27 27 (9331200)
I0909 07:21:01.372793 36933 net.cpp:137] Memory required for data: 256479600
I0909 07:21:01.372807 36933 layer_factory.hpp:77] Creating layer relu2
I0909 07:21:01.372817 36933 net.cpp:84] Creating Layer relu2
I0909 07:21:01.372822 36933 net.cpp:406] relu2 <- conv2
I0909 07:21:01.372838 36933 net.cpp:367] relu2 -> conv2 (in-place)
I0909 07:21:01.374301 36933 net.cpp:122] Setting up relu2
I0909 07:21:01.374320 36933 net.cpp:129] Top shape: 50 256 27 27 (9331200)
I0909 07:21:01.374325 36933 net.cpp:137] Memory required for data: 293804400
I0909 07:21:01.374330 36933 layer_factory.hpp:77] Creating layer norm2
I0909 07:21:01.374341 36933 net.cpp:84] Creating Layer norm2
I0909 07:21:01.374346 36933 net.cpp:406] norm2 <- conv2
I0909 07:21:01.374354 36933 net.cpp:380] norm2 -> norm2
I0909 07:21:01.374615 36933 net.cpp:122] Setting up norm2
I0909 07:21:01.374630 36933 net.cpp:129] Top shape: 50 256 27 27 (9331200)
I0909 07:21:01.374634 36933 net.cpp:137] Memory required for data: 331129200
I0909 07:21:01.374639 36933 layer_factory.hpp:77] Creating layer pool2
I0909 07:21:01.374649 36933 net.cpp:84] Creating Layer pool2
I0909 07:21:01.374653 36933 net.cpp:406] pool2 <- norm2
I0909 07:21:01.374660 36933 net.cpp:380] pool2 -> pool2
I0909 07:21:01.374706 36933 net.cpp:122] Setting up pool2
I0909 07:21:01.374713 36933 net.cpp:129] Top shape: 50 256 13 13 (2163200)
I0909 07:21:01.374717 36933 net.cpp:137] Memory required for data: 339782000
I0909 07:21:01.374722 36933 layer_factory.hpp:77] Creating layer conv3
I0909 07:21:01.374733 36933 net.cpp:84] Creating Layer conv3
I0909 07:21:01.374738 36933 net.cpp:406] conv3 <- pool2
I0909 07:21:01.374747 36933 net.cpp:380] conv3 -> conv3
I0909 07:21:01.390655 36933 net.cpp:122] Setting up conv3
I0909 07:21:01.390676 36933 net.cpp:129] Top shape: 50 384 13 13 (3244800)
I0909 07:21:01.390681 36933 net.cpp:137] Memory required for data: 352761200
I0909 07:21:01.390693 36933 layer_factory.hpp:77] Creating layer relu3
I0909 07:21:01.390707 36933 net.cpp:84] Creating Layer relu3
I0909 07:21:01.390714 36933 net.cpp:406] relu3 <- conv3
I0909 07:21:01.390727 36933 net.cpp:367] relu3 -> conv3 (in-place)
I0909 07:21:01.390952 36933 net.cpp:122] Setting up relu3
I0909 07:21:01.390962 36933 net.cpp:129] Top shape: 50 384 13 13 (3244800)
I0909 07:21:01.390966 36933 net.cpp:137] Memory required for data: 365740400
I0909 07:21:01.390971 36933 layer_factory.hpp:77] Creating layer conv4
I0909 07:21:01.390983 36933 net.cpp:84] Creating Layer conv4
I0909 07:21:01.390990 36933 net.cpp:406] conv4 <- conv3
I0909 07:21:01.390998 36933 net.cpp:380] conv4 -> conv4
I0909 07:21:01.405678 36933 net.cpp:122] Setting up conv4
I0909 07:21:01.405699 36933 net.cpp:129] Top shape: 50 384 13 13 (3244800)
I0909 07:21:01.405704 36933 net.cpp:137] Memory required for data: 378719600
I0909 07:21:01.405714 36933 layer_factory.hpp:77] Creating layer relu4
I0909 07:21:01.405722 36933 net.cpp:84] Creating Layer relu4
I0909 07:21:01.405728 36933 net.cpp:406] relu4 <- conv4
I0909 07:21:01.405735 36933 net.cpp:367] relu4 -> conv4 (in-place)
I0909 07:21:01.405985 36933 net.cpp:122] Setting up relu4
I0909 07:21:01.405999 36933 net.cpp:129] Top shape: 50 384 13 13 (3244800)
I0909 07:21:01.406004 36933 net.cpp:137] Memory required for data: 391698800
I0909 07:21:01.406009 36933 layer_factory.hpp:77] Creating layer conv5
I0909 07:21:01.406023 36933 net.cpp:84] Creating Layer conv5
I0909 07:21:01.406028 36933 net.cpp:406] conv5 <- conv4
I0909 07:21:01.406038 36933 net.cpp:380] conv5 -> conv5
I0909 07:21:01.422716 36933 net.cpp:122] Setting up conv5
I0909 07:21:01.422741 36933 net.cpp:129] Top shape: 50 256 13 13 (2163200)
I0909 07:21:01.422747 36933 net.cpp:137] Memory required for data: 400351600
I0909 07:21:01.422760 36933 layer_factory.hpp:77] Creating layer relu5
I0909 07:21:01.422770 36933 net.cpp:84] Creating Layer relu5
I0909 07:21:01.422775 36933 net.cpp:406] relu5 <- conv5
I0909 07:21:01.422783 36933 net.cpp:367] relu5 -> conv5 (in-place)
I0909 07:21:01.423005 36933 net.cpp:122] Setting up relu5
I0909 07:21:01.423015 36933 net.cpp:129] Top shape: 50 256 13 13 (2163200)
I0909 07:21:01.423019 36933 net.cpp:137] Memory required for data: 409004400
I0909 07:21:01.423024 36933 layer_factory.hpp:77] Creating layer pool5
I0909 07:21:01.423034 36933 net.cpp:84] Creating Layer pool5
I0909 07:21:01.423045 36933 net.cpp:406] pool5 <- conv5
I0909 07:21:01.423066 36933 net.cpp:380] pool5 -> pool5
I0909 07:21:01.423141 36933 net.cpp:122] Setting up pool5
I0909 07:21:01.423151 36933 net.cpp:129] Top shape: 50 256 6 6 (460800)
I0909 07:21:01.423156 36933 net.cpp:137] Memory required for data: 410847600
I0909 07:21:01.423161 36933 layer_factory.hpp:77] Creating layer fc6
I0909 07:21:01.423171 36933 net.cpp:84] Creating Layer fc6
I0909 07:21:01.423176 36933 net.cpp:406] fc6 <- pool5
I0909 07:21:01.423184 36933 net.cpp:380] fc6 -> fc6
I0909 07:21:01.938575 36933 net.cpp:122] Setting up fc6
I0909 07:21:01.938623 36933 net.cpp:129] Top shape: 50 4096 (204800)
I0909 07:21:01.938629 36933 net.cpp:137] Memory required for data: 411666800
I0909 07:21:01.938642 36933 layer_factory.hpp:77] Creating layer relu6
I0909 07:21:01.938654 36933 net.cpp:84] Creating Layer relu6
I0909 07:21:01.938661 36933 net.cpp:406] relu6 <- fc6
I0909 07:21:01.938670 36933 net.cpp:367] relu6 -> fc6 (in-place)
I0909 07:21:01.938992 36933 net.cpp:122] Setting up relu6
I0909 07:21:01.939007 36933 net.cpp:129] Top shape: 50 4096 (204800)
I0909 07:21:01.939013 36933 net.cpp:137] Memory required for data: 412486000
I0909 07:21:01.939018 36933 layer_factory.hpp:77] Creating layer drop6
I0909 07:21:01.939028 36933 net.cpp:84] Creating Layer drop6
I0909 07:21:01.939033 36933 net.cpp:406] drop6 <- fc6
I0909 07:21:01.939040 36933 net.cpp:367] drop6 -> fc6 (in-place)
I0909 07:21:01.939081 36933 net.cpp:122] Setting up drop6
I0909 07:21:01.939088 36933 net.cpp:129] Top shape: 50 4096 (204800)
I0909 07:21:01.939092 36933 net.cpp:137] Memory required for data: 413305200
I0909 07:21:01.939096 36933 layer_factory.hpp:77] Creating layer fc7
I0909 07:21:01.939107 36933 net.cpp:84] Creating Layer fc7
I0909 07:21:01.939111 36933 net.cpp:406] fc7 <- fc6
I0909 07:21:01.939119 36933 net.cpp:380] fc7 -> fc7
I0909 07:21:02.167723 36933 net.cpp:122] Setting up fc7
I0909 07:21:02.167768 36933 net.cpp:129] Top shape: 50 4096 (204800)
I0909 07:21:02.167773 36933 net.cpp:137] Memory required for data: 414124400
I0909 07:21:02.167786 36933 layer_factory.hpp:77] Creating layer relu7
I0909 07:21:02.167800 36933 net.cpp:84] Creating Layer relu7
I0909 07:21:02.167807 36933 net.cpp:406] relu7 <- fc7
I0909 07:21:02.167816 36933 net.cpp:367] relu7 -> fc7 (in-place)
I0909 07:21:02.169486 36933 net.cpp:122] Setting up relu7
I0909 07:21:02.169504 36933 net.cpp:129] Top shape: 50 4096 (204800)
I0909 07:21:02.169509 36933 net.cpp:137] Memory required for data: 414943600
I0909 07:21:02.169515 36933 layer_factory.hpp:77] Creating layer drop7
I0909 07:21:02.169526 36933 net.cpp:84] Creating Layer drop7
I0909 07:21:02.169531 36933 net.cpp:406] drop7 <- fc7
I0909 07:21:02.169539 36933 net.cpp:367] drop7 -> fc7 (in-place)
I0909 07:21:02.169589 36933 net.cpp:122] Setting up drop7
I0909 07:21:02.169596 36933 net.cpp:129] Top shape: 50 4096 (204800)
I0909 07:21:02.169601 36933 net.cpp:137] Memory required for data: 415762800
I0909 07:21:02.169605 36933 layer_factory.hpp:77] Creating layer fc8
I0909 07:21:02.169616 36933 net.cpp:84] Creating Layer fc8
I0909 07:21:02.169621 36933 net.cpp:406] fc8 <- fc7
I0909 07:21:02.169630 36933 net.cpp:380] fc8 -> fc8
I0909 07:21:02.226024 36933 net.cpp:122] Setting up fc8
I0909 07:21:02.226047 36933 net.cpp:129] Top shape: 50 1000 (50000)
I0909 07:21:02.226052 36933 net.cpp:137] Memory required for data: 415962800
I0909 07:21:02.226060 36933 layer_factory.hpp:77] Creating layer fc8_fc8_0_split
I0909 07:21:02.226070 36933 net.cpp:84] Creating Layer fc8_fc8_0_split
I0909 07:21:02.226075 36933 net.cpp:406] fc8_fc8_0_split <- fc8
I0909 07:21:02.226083 36933 net.cpp:380] fc8_fc8_0_split -> fc8_fc8_0_split_0
I0909 07:21:02.226094 36933 net.cpp:380] fc8_fc8_0_split -> fc8_fc8_0_split_1
I0909 07:21:02.226155 36933 net.cpp:122] Setting up fc8_fc8_0_split
I0909 07:21:02.226164 36933 net.cpp:129] Top shape: 50 1000 (50000)
I0909 07:21:02.226169 36933 net.cpp:129] Top shape: 50 1000 (50000)
I0909 07:21:02.226174 36933 net.cpp:137] Memory required for data: 416362800
I0909 07:21:02.226189 36933 layer_factory.hpp:77] Creating layer accuracy
I0909 07:21:02.226227 36933 net.cpp:84] Creating Layer accuracy
I0909 07:21:02.226231 36933 net.cpp:406] accuracy <- fc8_fc8_0_split_0
I0909 07:21:02.226238 36933 net.cpp:406] accuracy <- label_data_1_split_0
I0909 07:21:02.226245 36933 net.cpp:380] accuracy -> accuracy
…
